conll-exp/models/model_sdt.pt (torch, 36007 bytes, 2 tensors)

inner_nodes.0.weight f4 [31, 271]
-1.1471866 0.56496674 0.62048995 0.1276363 -0.023396462 0.4902332 0.040728703 0.28444687
0.80609006 0.36737704 0.3332799 0.36037573 1.1812663 0.34138334 -0.022575386 0.736498
0.5805294 -0.0957933 1.083158 -0.08693489 0.7046814 0.05763765 -0.2708059 0.44456142
0.048021592 0.4548654 -0.40582982 0.5570523 0.2933371 1.063112 0.6438949 0.53462803
0.58164835 0.64509386 0.9482525 0.6029318 0.4279926 0.68575335 0.40827063 0.66122234
0.0048461603 -0.34981018 0.39909878 0.32948896 0.5705582 0.41072905 0.43383378 0.23604529
0.45983303 0.43650496 0.018480437 0.045772426 0.3028093 0.7378982 0.37332892 -0.18495297
-0.095361866 0.7469075 -0.042101987 0.48868054 0.1874262 0.99551076 0.047525227 0.4202212
0.71822506 -0.15293585 0.8810882 0.25877076 0.4763997 0.19261599 0.9198526 0.60818565
0.58267325 0.11216287 0.94268656 0.40647843 1.1364313 0.855596 0.9870034 0.29161862
0.8410596 1.1904558 0.3391721 -0.5500582 0.45530668 0.74490064 0.21732481 0.86370945
0.84351945 0.6292453 0.9784214 0.52866423 0.40698168 0.7451278 0.37595308 0.27068472
0.43596116 0.1724776 1.2320338 0.5323533 0.4640347 0.62698954 0.50701296 0.45433766
1.0135677 0.29442605 1.0290394 0.67920315 0.9723857 -0.050591864 -0.16073048 0.352459
-0.03696612 0.55126 -0.13999297 0.5468479 0.8866251 0.493367 0.6771018 0.62663925
0.8253171 0.4707843 0.60520285 0.22624406 0.68052995 0.8171085 0.06989339 -0.02959003
0.62757987 1.1921809 0.37115684 0.50992244 0.19971862 0.59257674 -0.02485235 0.6404374
0.40417892 0.61200106 0.3864205 0.5388063 0.6219697 -0.27020878 -0.06700069 0.6397022
0.17555873 0.08886537 0.2000338 -0.16245449 0.17492147 0.088105336 0.6311015 0.7250184
0.6192044 0.4396923 0.21166247 0.27209872 0.21090105 0.7081836 0.51962423 0.7863733
0.9315729 0.14127325 -0.29934156 0.09556386 0.33488908 0.20967098 -0.027595237 0.43294334
0.593918 1.0294868 0.26071554 0.22784816 0.11964327 0.16928886 0.60905963 0.58485276
0.73191047 0.29438564 0.3447646 0.75883126 0.8309394 0.2293845 0.42956957 0.45988885
1.0921367 0.10253719 0.5645415 0.41021943 0.8319408 0.7411575 0.6262782 0.45893782
0.34423593 0.013688205 -0.06554795 0.64331245 0.7299249 -0.17604212 0.89286184 0.0750211
0.39220053 0.7894441 0.5327245 0.23062181 0.37681484 0.5361524 0.19336772 0.5396152
1.5290803 0.405468 0.7543595 0.41828227 0.37176445 0.3737696 0.48861724 0.31735253
0.7964187 0.044748016 1.4457141 0.26734743 -0.059470713 0.8245162 0.060704056 0.59570575
0.41149187 0.9983717 0.65126705 1.2498584 1.2067565 0.76522577 0.7419273 0.84261763
0.66597724 0.86367255 0.90796274 0.26418087 0.6951947 1.2263824 0.5809194 1.192286
0.9284915 1.0607433 1.1469918 0.6878613 0.79537046 0.97571015 1.0746336 0.42781815
1.3042055 1.0769817 0.96369755 1.0000157 0.842814 1.0976969 1.2426903 0.65558183
00000000: 03d7 92bf a9a1 103f 6ed8 1e3f 17b3 023e
00000010: f0a9 bfbc d9ff fa3e 24d3 263d 05a3 913e
00000020: eb5b 4e3f d818 bc3e aaa3 aa3e 2b83 b83e
00000030: bc33 973f ccc9 ae3e 04f0 b8bc 228b 3c3f
00000040: 939d 143f 472f c4bd eca4 8a3f eb0a b2bd
00000050: 0066 343f 7515 6c3d 12a7 8abe 8e9d e33e
00000060: 4ab2 443d 1ee4 e83e edc8 cfbe fb9a 0e3f
00000070: 4830 963e 0e14 883f 4cd6 243f 62dd 083f
00000080: e8e6 143f df24 253f adc0 723f bd59 1a3f
00000090: d921 db3e 888d 2f3f d908 d13e de45 293f
000000a0: 8acc 9e3b 521a b3be ad56 cc3e c7b2 a83e
000000b0: 1a10 123f 144b d23e 761f de3e dbb5 713e
000000c0: 3c6f eb3e 947d df3e 4964 973c de7b 3b3d
000000d0: d209 9b3e e5e6 3c3f f824 bf3e 5064 3dbe
000000e0: 154d c3bd 5435 3f3f 2273 2cbd 5634 fa3e
000000f0: a7ec 3f3e cbd9 7e3f d0a9 423d 3c27 d73e
00000100: 99dd 373f 379b 1cbe ff8e 613f 9a7d 843e
00000110: a9ea f33e 203d 453e 767b 6b3f 0eb2 1b3f
00000120: 132a 153f a6b5 e53d e853 713f f11d d03e
00000130: 9576 913f 5708 5b3f 41ac 7c3f 094f 953e
00000140: af4f 573f db60 983f f7a7 ad3e 9dd0 0cbf
00000150: f51d e93e cfb1 3e3f 658a 5e3e 101c 5d3f
00000160: e4f0 573f 3816 213f d379 7a3f 8a56 073f
00000170: e75f d03e b2c0 3e3f ec7c c03e 3097 8a3e
00000180: 4d36 df3e f89d 303e 49b3 9d3f 4e48 083f
00000190: f595 ed3e 6382 203f 9acb 013f f29e e83e
000001a0: 96bc 813f 03bf 963e 90b7 833f 42e0 2d3f
000001b0: 45ee 783f 6a39 4fbd 8896 24be 8275 b43e
000001c0: c969 17bd 601f 0d3f 515a 0fbe 39fe 0b3f
000001d0: ddf9 623f 999a fc3e 8b56 2d3f 6e6b 203f
000001e0: fb47 533f a40a f13e 93ee 1a3f 86ac 673e
000001f0: 3637 2e3f 062e 513f 4424 8f3d ca66 f2bc
00000200: 13a9 203f 6299 983f 4508 be3e 478a 023f
00000210: 0a83 4c3e 1cb3 173f 2897 cbbc b5f3 233f
00000220: 8af0 ce3e 1aac 1c3f e8d8 c53e 36ef 093f
00000230: 6839 1f3f ce58 8abe a837 89bd 86c3 233f
00000240: abc5 333e 0cff b53d a9d5 4c3e 785a 26be
00000250: 9d1e 333e 9270 b43d de8f 213f ce9a 393f
00000260: 2e84 1e3f 591f e13e 0cbe 583e 8650 8b3e
00000270: 72f6 573e 854b 353f 1806 053f c34f 493f
00000280: 907b 6e3f efa9 103e 4c43 99be fcb6 c33d
00000290: 9576 ab3e fdb3 563e 680f e2bc c0aa dd3e
000002a0: 030b 183f 39c6 833f 827c 853e 0751 693e
000002b0: 8807 f53d 0f5a 2d3e 55eb 1b3f e9b8 153f
000002c0: 7c5e 3b3f b7b9 963e fc84 b03e c442 423f
000002d0: 72b8 543f c5e3 6a3e 8bf0 db3e 8d76 eb3e
000002e0: 23cb 8b3f 05ff d13d cb85 103f 4808 d23e
000002f0: 13fa 543f 7fbc 3d3f c553 203f e6f9 ea3e
00000300: b13f b03e 7e44 603c 013e 86bd 20b0 243f
00000310: 5cdc 3a3f 6344 34be 9892 643f aaa4 993d
00000320: 82ce c83e 0219 4a3f a260 083f 2028 6c3e
00000330: e0ed c03e 4941 093f 3002 463e 3924 0a3f
00000340: e7b8 c33f 8099 cf3e b41d 413f 1829 d63e
00000350: e957 be3e bb5e bf3e 0a2c fa3e 087c a23e
00000360: 19e2 4b3f b249 373d 290d b93f c3e1 883e
00000370: 9097 73bd 7e13 533f d1a4 783d 2c80 183f
00000380: 10af d23e 4a95 7f3f 70b9 263f 5cfb 9f3f
00000390: ff76 9a3f d6e5 433f f3ee 3d3f cab5 573f
000003a0: 7c7d 2a3f a519 5d3f 3f70 683f b742 873e
000003b0: 48f8 313f 19fa 9c3f 22b7 143f d49c 983f
000003c0: 9eb1 6d3f 70c6 873f a1d0 923f ae17 303f
000003d0: 669d 4b3f 24c8 793f 988d 893f fb0a db3e
000003e0: 35f0 a63f 89da 893f e2b4 763f 8400 803f
000003f0: a9c2 573f 5581 8c3f 7a10 9f3f 36d4 273f

leaf_nodes.weight f4 [1, 32]
0.709885 0.543013 0.48602754 0.49616823 1.1351378 1.0772837 3.1417608 4.709453
-0.079110235 -0.07580997 0.34930316 0.52094483 2.7095697 2.4354255 0.83622897 1.9946525
-1.6122159 -2.6168482 -5.1517324 -3.8894222 -1.6971769 -1.6555735 -2.5105698 -2.0930889
-0.776636 -1.0544782 -1.5121752 -1.5093216 -1.0168653 -0.9144211 -1.5636597 -1.7547034
00000000: 06bb 353f e602 0b3f 9ad8 f83e c309 fe3e
00000010: 324c 913f 6fe4 893f 9c12 4940 d7b3 9640
00000020: 8c04 a2bd 4242 9bbd ddd7 b23e a45c 053f
00000030: 9769 2d40 03de 1b40 1a13 563f c650 ff3f
00000040: 175d cebf 717a 27c0 feda a4c0 4bec 78c0
00000050: 183d d9bf d5e9 d3bf 2dad 20c0 2bf5 05c0
00000060: 9ed1 46bf 24f9 86bf f58e c1bf 7331 c1bf
00000070: a428 82bf 8017 6abf 0026 c8bf 1f9a e0bf
