conll-exp/models/model_modified.pt (torch, 100575 bytes, 3 tensors)

linear1.weight f4 [90, 270]
-0.06326318 -0.04800857 -0.02978463 -0.057577226 -0.017014522 -0.05354094 0.04445009 0.0317583
0.05486307 0.012398728 -0.006985884 0.14145306 0.007766721 -0.0119928345 -0.049137127 0.04537964
-0.06831481 0.18725863 0.032388777 0.11622665 0.05443012 -0.088006556 0.08341166 -0.04425345
0.014143217 -0.07147754 -0.030853769 -0.013367635 0.06921798 -0.021270027 -0.01374188 0.10910761
0.025527555 -0.054583367 -0.07538248 0.0067367665 -0.013501789 -0.08511528 -0.029691182 0.013381803
-0.01714459 0.02572569 -0.0063036433 -0.04887751 0.07606967 -0.02309564 -0.004168998 0.0176516
-0.0068687745 0.030114047 -0.015813544 -0.02553248 -0.0077944417 0.071151145 0.01570817 -0.0011703618
0.006464842 0.050638586 -0.0020576427 -0.027104657 0.13822854 -0.013149761 0.0069408393 0.0075605153
-0.04557901 0.059649196 0.021378485 -0.04361274 0.07041124 0.096785106 0.059739683 0.117240995
0.0051060077 0.089970544 0.051241416 0.07074369 0.10920325 0.14786828 0.029350447 0.121599734
-0.05244763 -0.052442044 -0.06165788 0.05715405 0.0315342 0.060434554 0.14681424 -0.055497114
-0.045399517 0.05684971 -0.026393523 0.05562746 -0.05103036 0.09330193 0.03235648 0.054768376
-0.03522183 0.14031722 0.053886846 -0.03027943 0.057455465 0.053661834 -0.010837542 -0.028684663
0.01821458 -0.0040978543 -0.020604338 -0.0060072234 0.03333475 -0.042538226 0.052718304 0.031543635
-0.04126347 -0.046225037 0.010613193 -0.028795438 0.10660305 0.06511721 -0.00860674 0.07385586
0.059880972 -0.0597022 -0.060569666 0.024762046 0.014311069 -0.008418337 0.016459621 0.065398686
0.14659534 -0.048343517 0.09709076 0.043777667 0.09150127 -0.012006179 -0.045654755 -0.026872305
0.10203616 0.04539304 -0.05726051 -0.10890015 -0.04455191 -0.0069092475 -0.0050844327 0.040100012
-0.026675927 -0.027573738 0.0070674797 -0.020947685 0.026382804 0.12504967 -0.011581191 0.05089223
0.052821305 0.051778395 0.05279915 -0.052106492 0.011932455 -0.025821345 0.08735714 -0.018372824
-0.048780296 -0.010479975 0.0060303584 0.02767355 -0.047617033 -0.058888316 -0.025398491 -0.015945543
0.08601248 -0.021718482 0.03556393 -0.025948936 -0.056204334 0.044407822 0.035991356 0.02217625
-0.019828431 0.09392827 0.10427495 0.040120166 0.076113224 0.045756407 0.084838204 0.08560942
0.046043992 0.07523445 0.07036819 0.12394756 -0.055571806 -0.01628538 0.12705138 -0.011801367
-0.040715076 -0.044016346 0.041869998 -0.005227456 -0.06932984 0.10051829 -0.025153674 0.05793339
-0.040104486 0.08271463 0.021701997 0.08302464 0.091135964 0.01376024 0.10144527 -0.04050224
0.041995473 -0.010316864 -0.04228227 -0.04354903 0.0811763 0.028208056 -0.04241176 -0.01395942
-0.008235288 0.013123039 0.04571345 0.03198369 -0.038348332 -0.055268783 0.040925108 0.025108717
0.14214382 -0.031291455 -0.009445848 0.1262695 0.055949558 -0.052422773 0.03920983 0.08950283
0.11518625 0.17960852 0.056212485 0.13121995 -0.09843213 0.008396337 0.082854845 0.1259991
0.13538766 0.13928965 -0.05339926 -0.0157023 0.13057995 0.15998179 -0.013011685 0.18454584
0.13904315 -0.017211437 0.077567555 0.12603529 -0.0033090492 -0.057063457 -0.017131513 -0.037867963
00000000: 2090 81bd a2a4 44bd e5fe f3bc 19d6 6bbd
00000010: 0a62 8bbc bf4d 5bbd 4c11 363d fe14 023d
00000020: 19b8 603d 0924 4b3c d8e9 e4bb 12d9 103e
00000030: fa7f fe3b 987d 44bc 0344 49bd 00e0 393d
00000040: a3e8 8bbd bac0 3f3e 18aa 043d 3d08 ee3d
00000050: 1ef2 5e3d c83c b4bd bbd3 aa3d 1b43 35bd
00000060: f4b8 673c d162 92bd 0bc1 fcbc ed03 5bbc
00000070: 28c2 8d3d 7b3e aebc 9f25 61bc d073 df3d
00000080: 2a1f d13c cf92 5fbd 2162 9abd 18c0 dc3b
00000090: 9c36 5dbc eb50 aebd ec3a f3bc 5a3f 5b3c
000000a0: d072 8cbc afbe d23c cb8e cebb c933 48bd
000000b0: 6aca 9b3d 1133 bdbc 179c 88bb 179a 903c
000000c0: 7513 e1bb bcb1 f63c 688b 81bc 7e29 d1bc
000000d0: 8468 ffbb b1b7 913d 6cae 803c d366 99ba
000000e0: 06d7 d33b 686a 4f3d 84d9 06bb 960a debc
000000f0: c88b 0d3e 1872 57bc fb6f e33b 33be f73b
00000100: 0eb1 3abd b752 743d ef21 af3c 46a3 32bd
00000110: c533 903d 4537 c63d 99b1 743d 0c1c f03d
00000120: 4c50 a73b 7a42 b83d 85e2 513d 11e2 903d
00000130: f4a5 df3d c86a 173e 5970 f03c 4809 f93d
00000140: 53d3 56bd 78cd 56bd f98c 7cbd 5d1a 6a3d
00000150: 012a 013d 398a 773d 7956 163e f150 63bd
00000160: d8f4 39bd 3edb 683d 3b37 d8bc 9fd9 633d
00000170: 3605 51bd 1515 bf3d 3a88 043d ce54 603d
00000180: c444 10bd 51af 0f3e 74b8 5c3d 910c f8bc
00000190: 6c56 6b3d 83cc 5b3d f28f 31bc 19fc eabc
000001a0: be36 953c 4b47 86bb 6eca a8bc 3ed8 c4bb
000001b0: 058a 083d 903c 2ebd 26ef 573d e633 013d
000001c0: e203 29bd 7756 3dbd f5e2 2d3c 69e4 ebbc
000001d0: b352 da3d 2c5c 853d 4903 0dbc be41 973d
000001e0: c045 753d 4b8a 74bd e617 78bd c6d9 ca3c
000001f0: f978 6a3c 11ed 09bc 54d6 863c bfef 853d
00000200: 171d 163e da03 46bd 85d7 c63d 3650 333d
00000210: 0565 bb3d 91b5 44bc 7b00 3bbd 4f23 dcbc
00000220: 56f8 d03d 0dee 393d ff89 6abd 0b07 dfbd
00000230: 107c 36bd f866 e2bb 509b a6bb e93f 243d
00000240: 7987 dabc 52e2 e1bc 5196 e73b 7b9a abbc
00000250: c020 d83c 050d 003e 09bf 3dbc 5f74 503d
00000260: 275b 583d 9515 543d ec43 583d 9e6d 55bd
00000270: 5880 433c 4987 d3bc 4de8 b23d 9b82 96bc
00000280: d9cd 47bd 33b4 2bbc 509a c53b a4b3 e23c
00000290: 140a 43bd e034 71bd 7f10 d0bc 3aa0 82bc
000002a0: 5027 b03d f5ea b1bc 7cab 113d dd92 d4bc
000002b0: 8436 66bd fae4 353d ac6b 133d f8aa b53c
000002c0: 3c6f a2bc 775d c03d 1b8e d53d 0b55 243d
000002d0: 40e1 9b3d 126b 3b3d a7bf ad3d fe53 af3d
000002e0: a098 3c3d 8514 9a3d 331d 903d 38d8 fd3d
000002f0: 439f 63bd eb68 85bc c219 023e 855a 41bc
00000300: dac4 26bd 7c4a 34bd e07f 2b3d 144b abbb
00000310: cefc 8dbd 89dc cd3d 140f cebc 904b 6d3d
00000320: 9a44 24bd 4a66 a93d 63c8 b13c d308 aa3d
00000330: 7ea5 ba3d a172 613c 8ac2 cf3d ade5 25bd
00000340: 7203 2c3d 1008 29bc 2c30 2dbd 7860 32bd
00000350: c33f a63d 9514 e73c f4b7 2dbd 0db6 64bc
00000360: 4ded 06bc 0402 573c 073e 3b3d 5401 033d
00000370: 2413 1dbd 8561 62bd 16a1 273d ccb0 cd3c
00000380: 268e 113e 782b 00bd c2c2 1abc cb4c 013e
00000390: 5d2b 653d 43b9 56bd 7d9a 203d 424d b73d
000003a0: c5e6 eb3d 4ceb 373e 103f 663d 865e 063e
000003b0: c996 c9bd ca90 093c cdaf a93d e805 013e
000003c0: 10a3 0a3e f2a1 0e3e 2fb9 5abd 1ca2 80bc
000003d0: c0b6 053e 44d2 233e f62e 55bc 96f9 3c3e
000003e0: 5461 0e3e 00ff 8cbc bddb 9e3d 650f 013e
000003f0: a2dc 58bb 5fbb 69bd 6357 8cbc 701b 1bbd

linear1.bias f4 [90]
-0.043267414 -0.04740905 -0.0013651927 -0.026465103 -0.0880837 -0.04821429 0.12419496 -0.062173642
0.15916602 0.018901197 -0.07438244 -0.013291511 0.09976581 -0.016948972 0.005342848 -0.15824874
-0.09202241 0.14757489 -0.0702899 -0.002361206 -0.074729174 0.17403907 -0.043991644 -0.029423116
-0.032475647 -0.27278805 -0.010795369 -0.03368805 0.19855836 -0.08267922 -0.12403033 0.17069247
0.16361757 -0.10496534 -0.068611816 -0.000940512 -0.08470978 -0.047254514 0.010333621 -0.08298602
-0.045526765 -0.06867066 -0.12322951 -0.08361405 -0.049924534 -0.22379284 -0.075609766 0.044399034
0.053591706 0.014810513 -0.009646409 0.007633518 -0.010329274 -0.2498421 -0.085209616 0.047892313
0.018982762 -0.021306973 -0.07260874 -0.043917056 -0.09961458 -0.09341118 -0.12015171 -0.15712272
0.12503584 0.025224881 0.020925725 -0.017134476 -0.010074253 -0.25919726 0.021990335 -0.1451525
-0.06713094 0.33150038 0.124999024 -0.02350017 0.0018901969 0.07906725 -0.036596455 -0.06373089
-0.05346762 -0.06535497 -0.103630975 -0.08442893 -0.04314846 -0.031589042 -0.03637527 0.07859917
-0.04082547 -0.060796116
00000000: 2c39 31bd fe2f 42bd 44f0 b2ba 58cd d8bc
00000010: 3a65 b4bd 597c 45bd ed59 fe3d caa9 7ebd
00000020: 6bfc 223e afd6 9a3c d255 98bd a3c4 59bc
00000030: 0452 cc3d 92d8 8abc 0f13 af3b f50b 22be
00000040: 3f76 bcbd df1d 173e 27f4 8fbd 77be 1abb
00000050: 9c0b 99bd 4c37 323e 9530 34bd bf08 f1bc
00000060: 2f05 05bd e0aa 8bbe 0fdf 30bc 7bfc 09bd
00000070: e252 4b3e b953 a9bd 9d03 febd 02ca 2e3e
00000080: 5d8b 273e 11f8 d6bd 5a84 8cbd b18c 76ba
00000090: 527c adbd f38d 41bd 594e 293c 93f4 a9bd
000000a0: 467a 3abd 34a3 8cbd c15f fcbd d83d abbd
000000b0: ab7d 4cbd f329 65be 4bd9 9abd c3db 353d
000000c0: fa82 5b3d cba7 723c f90b 1ebc 9722 fa3b
000000d0: 1e3c 29bc 9cd6 7fbe 6182 aebd bb2a 443d
000000e0: bd81 9b3c f68b aebc e4b3 94bd 5fe2 33bd
000000f0: bb02 ccbd 5c4e bfbd 1a12 f6bd c7e4 20be
00000100: 6509 003e 69a4 ce3c 6d6c ab3c 9a5d 8cbc
00000110: 7b0e 25bc 81b5 84be 1325 b43c dba2 14be
00000120: f27b 89bd 6bba a93e 7dff ff3d 6e83 c0bc
00000130: 7cc0 f73a 03ee a13d 2ae6 15bd 5785 82bd
00000140: dd00 5bbd d4d8 85bd 7a3c d4bd 13e9 acbd
00000150: 71bc 30bd 8363 01bd 3cfe 14bd 9af8 a03d
00000160: 9c38 27bd 5905 79bd

linear2.weight f4 [1, 90]
0.5192588 0.4814662 0.26083747 0.05221995 0.5543903 0.34469947 -0.23556131 0.22330162
-0.37091386 0.6080915 0.42048952 -0.0012066838 -0.24905735 0.42558017 0.29988235 0.5627634
0.3775142 -0.33169153 -0.021479398 0.10124863 0.320187 -0.7857111 0.3304437 0.31560934
0.106087625 0.6743477 0.20649594 0.15763251 -1.232943 0.38462508 0.5132031 -0.5864853
-0.2876187 0.46174935 0.3780687 -0.12014723 0.3136218 0.6808729 0.3010325 0.36755148
0.37130362 0.052161783 0.4819978 -0.013054839 0.56632847 0.61098856 0.5878862 -0.1929019
0.40027228 0.30703002 0.1771712 0.34896925 0.3196311 0.6790781 0.5118045 0.42949158
-0.0004296522 0.1411689 0.44227925 0.024908243 0.36591414 0.52098805 0.576727 0.4452274
-0.32647207 -0.07117543 -0.1202291 0.22456616 0.37344366 0.6647379 -0.053447075 0.42120835
0.24524336 -1.1671132 -1.0454919 -0.15811881 0.5708785 -0.043585222 0.31375295 -0.15054077
0.05808305 0.022911744 0.38652185 0.5785631 -0.10017134 0.32715183 0.1906204 -0.6954476
0.56385285 0.5038969
00000000: 25ee 043f bd82 f63e 7d8c 853e 96e4 553d
00000010: 86ec 0d3f 737c b03e fc36 71be 2ea9 643e
00000020: 6ce8 bdbe e2ab 1b3f 674a d73e 9729 9eba
00000030: e408 7fbe a5e5 d93e 2e8a 993e 4311 103f
00000040: 8b49 c13e 79d3 a9be 90f5 afbc 715b cf3d
00000050: 8def a33e 5d24 49bf eb2f a93e 8c97 a13e
00000060: 7844 d93d 0da2 2c3f ac73 533e 6b6a 213e
00000070: 14d1 9dbf 94ed c43e 4761 033f e723 16bf
00000080: c242 93be 696a ec3e 3892 c13e c00f f6bd
00000090: 0993 a03e b04d 2e3f ef20 9a3e b52f bc3e
000000a0: 821b be3e 98a7 553d 6ac8 f63e f7e3 55bc
000000b0: e7fa 103f bf69 1c3f b67f 163f 1388 45be
000000c0: 7df0 cc3e 0a33 9d3e 5e6c 353e 19ac b23e
000000d0: b0a6 a33e 10d8 2d3f 9f05 033f 52e6 db3e
000000e0: f142 e1b9 958e 103e 6d72 e23e 5f0c cc3c
000000f0: 1959 bb3e 795f 053f 61a4 133f d9f4 e33e
00000100: 5927 a7be 6dc4 91bd ad3a f6bd acf4 653e
00000110: 0234 bf3e 432c 2a3f 52eb 5abd 9fa8 d73e
00000120: 1321 7b3e f763 95bf aed2 85bf e6e9 21be
00000130: 1825 123f 6b86 32bd 3aa4 a03e 5c27 1abe
00000140: 7ee8 6d3d 69b1 bb3c 31e6 c53e b61c 143f
00000150: a226 cdbd 7280 a73e fe31 433e db08 32bf
00000160: a958 103f 63ff 003f
