conll-exp/models/model_orig.pt (torch, 3175 bytes, 1 tensors)

linear.weight f4 [1, 270]
000000 ee 81 41 3f 06 df 5d 3f 68 2b 22 3e 70 73 37 bd
       0.7558888 0.8666843 0.1583687 -0.044787824
000010 3f 01 28 3f d6 9f b0 3d fe 0c af 3e e7 c8 87 3f
       0.656269 0.08624236 0.341896 1.0608186
000020 1d 9f e2 3e 1a a0 ee 3e 76 50 e6 3e 15 d9 8c 3f
       0.4426202 0.46606523 0.44983262 1.1003748
000030 7f 61 fc 3e 12 c0 30 3d e1 ff 6f 3f 8c 55 2e 3f
       0.49293134 0.043151923 0.93749815 0.68099284
000040 9c ac 15 be 40 f7 ad 3f 29 88 0c be de f0 65 3f
       -0.14616627 1.359108 -0.13723816 0.8982066
000050 c6 17 6b 3e 1d 89 3a be f1 af 13 3f 6b b0 85 3d
       0.22958288 -0.18216367 0.5769034 0.0652779
000060 36 fa 1b 3f a4 4a f4 be 3a e2 2b 3f d1 fd 06 3f
       0.60928667 -0.47713196 0.6714207 0.52731043
000070 59 6a ae 3f 76 7c 61 3f 13 1c 37 3f 46 0a 39 3f
       1.3626205 0.8808054 0.7152721 0.722813
000080 95 e2 49 3f de 36 86 3f fe 57 3e 3f 6d 52 06 3f
       0.7886136 1.0485494 0.74353015 0.5246952
000090 25 44 79 3f 96 c8 14 3f 78 12 44 3f 6a 21 e6 bc
       0.97369605 0.5811857 0.7659068 -0.028092105
0000a0 38 12 d3 be 45 7b f1 3e c5 6c f3 3e dc bc 0e 3f
       -0.41224837 0.4716436 0.47543922 0.55756927
0000b0 26 b0 0d 3f b0 28 07 3f 2f 64 7b 3e 39 f2 23 3f
       0.55346906 0.5279646 0.24549936 0.6404148
0000c0 ba 46 38 3f 72 e7 3e 3e 44 3f 87 3d 53 53 a1 3e
       0.7198292 0.18642977 0.06603864 0.31508884
0000d0 30 d9 7b 3f 43 3c c6 3e d2 09 3a be 83 a8 36 be
       0.98378277 0.3871785 -0.18167809 -0.1783772
0000e0 38 28 77 3f 95 43 41 bd 95 eb 24 3f fb 07 14 3e
       0.96545744 -0.047183592 0.6442197 0.1445617
0000f0 fa f1 9b 3f 8a 44 13 3d 70 da fd 3e ce 96 6a 3f
       1.218322 0.035954036 0.49580717 0.9163636
000100 83 a1 51 be bc 2a 34 3f 84 24 74 3e 78 67 24 3f
       -0.20471768 0.7037771 0.23842055 0.6422038
000110 50 3a 7e 3e 06 8d 99 3f ac 26 53 3f 94 5c 1e 3f
       0.24826932 1.1996162 0.82480884 0.61860013
000120 72 c3 b8 3d 40 c8 9f 3f 48 a1 fd 3e 3c 26 b7 3f
       0.09021653 1.2482986 0.4953711 1.4308543
000130 20 dc 84 3f 22 df 9b 3f d5 dd d2 3e 11 b5 8b 3f
       1.0379677 1.217747 0.4118487 1.0914632
000140 ac d4 c0 3f 57 a4 bf 3e 67 20 0c bf 11 b0 0d 3f
       1.5064902 0.3743007 -0.5473694 0.5534678
000150 32 2a 80 3f 2c 8e 42 3e e6 a2 a1 3f 57 e3 85 3f
       1.0012877 0.18999547 1.2627838 1.0460004
000160 d9 ab 4a 3f ea 4a 98 3f 41 2d 2f 3f cb 18 08 3f
       0.7916847 1.1897862 0.68428427 0.5316283
000170 0e 12 80 3f 21 73 10 3f a4 01 b7 3e 14 51 f6 3e
       1.000551 0.5642567 0.3574344 0.48108733
000180 b2 2c 72 3e 3b 8f b2 3f 4d 34 24 3f 51 65 09 3f
       0.23649862 1.394996 0.64142305 0.5367022
000190 53 17 56 3f 5e 78 32 3f 5e 37 1b 3f 4c 78 b4 3f
       0.8362934 0.69714916 0.6063136 1.4099212
0001a0 bb c4 a5 3e 61 ec a9 3f f7 dc 5e 3f c5 10 89 3f
       0.32376656 1.3275262 0.87055916 1.0708243
0001b0 cc d3 dd bd 09 dd 63 be 12 21 c0 3e fa e9 13 3d
       -0.10831413 -0.22252287 0.3752523 0.03611181
0001c0 19 6f 3e 3f ac 10 73 be c1 1d 46 3f c4 e0 90 3f
       0.7438827 -0.23736829 0.7738915 1.1318593
0001d0 99 87 1c 3f db 60 6f 3f 44 b2 5a 3f 09 9e 3f 3f
       0.61144406 0.93507165 0.8542826 0.7485052
0001e0 08 53 25 3f ce 84 49 3f b5 b2 97 3e e6 a1 63 3f
       0.6457982 0.7871827 0.2962853 0.8891891
0001f0 6a 55 86 3f 48 06 96 bd 80 9a 79 bc 35 6a 5c 3f
       1.0494816 -0.07325417 -0.01523459 0.8609956
000200 a3 1f b1 3f 9f 1f b0 3e 3d d6 26 3f 3a 94 9f 3e
       1.383778 0.34399125 0.6517065 0.31167775
000210 ac f0 2e 3f 67 59 01 be 91 4e 46 3f 95 8b 1f 3f
       0.68335986 -0.1263176 0.7746363 0.6232236
000220 14 1d 4f 3f 3c 6e 0d 3f 96 93 51 3f 67 75 3d 3f
       0.80903745 0.5524633 0.81865823 0.74007267
000230 a9 c1 e0 bd a6 4d 1b be 44 88 43 3f d1 30 84 3e
       -0.10974438 -0.1516634 0.763798 0.25818494
000240 f8 e6 1f 3e ba 6b 9b 3e fb bb de bd 97 29 3f 3e
       0.15615451 0.30355626 -0.10875698 0.18668209
000250 d0 42 17 3e d4 20 52 3f f8 55 70 3f 13 82 15 3f
       0.1477158 0.8208134 0.9388118 0.584016
000260 4c 0f 0c 3f 13 29 8a 3e dc 89 b6 3e 5b b4 16 3e
       0.5471084 0.26984462 0.35652053 0.14717238
000270 71 b2 78 3f a6 23 35 3f f7 fb 6b 3f 67 a5 8b 3f
       0.9714728 0.7075752 0.9218134 1.0909852
000280 9a 51 3c 3e e3 8f d5 be ca fe 11 3e 9f e1 d0 3e
       0.18390504 -0.4171134 0.1425735 0.40797135
000290 db 1d 48 3e 80 50 4e 3a 6d d3 04 3f ba d9 5d 3f
       0.19542639 0.0007870272 0.5188511 0.8666035
0002a0 dc 5b 9a 3f 56 f8 9b 3e 6f 6f cb 3e 14 aa 39 3e
       1.2059283 0.30462903 0.39733455 0.18131286
0002b0 6d 8f 11 3e 78 27 c0 3e 15 ef 37 3f 6a d7 72 3f
       0.14214869 0.37530112 0.71849185 0.94859946
0002c0 e3 b8 a1 3e ed 4d e8 3e ef 64 87 3f 66 3a 7d 3f
       0.3158637 0.45371953 1.0577677 0.98917234
0002d0 4d 34 b1 3e c5 5c 07 3f 2f c3 08 3f ed 93 b1 3f
       0.34610215 0.5287593 0.53422827 1.3873268
0002e0 2e c4 c8 3c b4 ba 44 3f ee 8b e1 3e c2 06 83 3f
       0.024507608 0.76847386 0.4405207 1.0236437
0002f0 d1 1f 7c 3f 61 ca 55 3f 97 27 32 3f 22 3e db 3e
       0.9848605 0.8351193 0.6959166 0.4282084
000300 35 23 11 3c 33 07 19 be 61 d9 85 3f b7 87 51 3f
       0.008858492 -0.14944153 1.0456964 0.8184771
000310 c9 7c 80 bd b4 2b 98 3f 39 28 e1 3c 8b de 02 3f
       -0.06273801 1.1888337 0.027485 0.51120824
000320 af 99 89 3f e9 6d 52 3f 4a 8b a4 3e 7a d7 f4 3e
       1.0750026 0.8219896 0.3213752 0.47820646
000330 6d 84 1b 3f 53 0e 10 3e e1 6c 25 3f d6 0c fe 3f
       0.6074894 0.14067964 0.6461926 1.9847667
000340 71 c4 e5 3e 2a 6b 75 3f ff 08 13 3f d5 cc 06 3f
       0.44876435 0.95866644 0.574356 0.526563
000350 4c 2a e6 3e ab 58 29 3f df 36 c5 3e d5 89 6e 3f
       0.44954145 0.6615092 0.38518426 0.93179065
000360 b2 25 b2 3d 8e f2 eb 3f c5 49 cf 3e a6 4a 07 be
       0.08698596 1.8433397 0.4048597 -0.1321207
000370 ff a0 86 3f d1 06 bb 3d 52 3f 4c 3f dd a3 ef 3e
       1.0517882 0.091321595 0.7978412 0.46804705
000380 68 e9 9b 3f de e8 5d 3f fa ba d3 3f 16 a9 9e 3f
       1.2180605 0.8668345 1.6541436 1.2395351
000390 24 eb 7a 3f 91 c2 6d 3f e2 3f 88 3f 3e 18 5d 3f
       0.98015046 0.9287501 1.0644495 0.86365116
0003a0 2e f9 8b 3f f8 8d 87 3f 21 10 f2 3e a1 d0 5f 3f
       1.0935419 1.05902 0.4727793 0.8742772
0003b0 ce 62 bc 3f 76 62 3e 3f 81 88 c1 3f b9 86 99 3f
       1.4717653 0.7436899 1.5119783 1.1994239
0003c0 5d cc b4 3f 41 64 ba 3f 04 3c 48 3f 60 98 8c 3f
       1.4124867 1.4561845 0.78216577 1.0984001
0003d0 d6 c8 a8 3f c0 32 af 3f ff 1e 07 3f 54 17 d4 3f
       1.318629 1.3687363 0.5278167 1.6569619
0003e0 73 30 d9 3f 64 b8 99 3f a3 08 a7 3f b0 9a 81 3f
       1.696791 1.2009397 1.3049511 1.0125332
0003f0 b2 58 c1 3f b7 54 d7 3f c4 79 63 3f ed c3 18 3e
       1.5105193 1.6822728 0.88857675 0.1491849
